Model: "sequential_2"
_________________________________________________________________
Layer (type)                 Output Shape              Param #   
=================================================================
conv_1 (Conv1D)              (None, 1998, 4)           12        
_________________________________________________________________
conv_2 (Conv1D)              (None, 1997, 4)           36        
_________________________________________________________________
conv_3 (Conv1D)              (None, 1996, 4)           36        
_________________________________________________________________
conv_4 (Conv1D)              (None, 1995, 4)           36        
_________________________________________________________________
maxpool_1 (MaxPooling1D)     (None, 1995, 4)           0         
_________________________________________________________________
dropout_2 (Dropout)          (None, 1995, 4)           0         
_________________________________________________________________
flatten_1 (Flatten)          (None, 7980)              0         
_________________________________________________________________
dense_1 (Dense)              (None, 4)                 31924     
_________________________________________________________________
dense_2 (Dense)              (None, 1)                 5         
=================================================================
Total params: 32,049
Trainable params: 32,049
Non-trainable params: 0
_________________________________________________________________
